WebotsSimluation/Brian/controllers/agent_controller/model.pth (torch, 328387 bytes, 12 tensors)

base.0.weight f4 [1024, 14]
000000 90 70 ee 3c 37 19 5f be ec 5e fa bd 93 6d 30 be
       0.029106408 -0.21786962 -0.12225136 -0.17229299
000010 a8 61 ad ba 8e c3 2c 3d f2 13 0b 3f c7 a4 6c bd
       -0.0013227956 0.042178683 0.5432731 -0.05777433
000020 d4 6a ee be 9e b3 75 3e 3e 71 52 be df 7d 1b 3e
       -0.46565878 0.239943 -0.20551011 0.15184735
000030 f8 06 17 bf 24 50 06 3d 31 81 68 be b2 7b 4d 3e
       -0.5899501 0.03279127 -0.22705533 0.20066717
000040 4b 80 52 3e a6 5a 5d be d8 d9 58 bd f0 d7 d6 bd
       0.20556752 -0.21616611 -0.052942127 -0.104904056
000050 a8 fd a8 3e 76 9f cd be c8 4b 0e be 3d 52 23 3e
       0.33006024 -0.40160722 -0.13896096 0.1594934
000060 34 52 ea 3e c1 41 fa be 10 db a8 be 4f 03 00 be
       0.4576584 -0.4887829 -0.3297963 -0.12501262
000070 0d 46 e3 3c 4f b9 ac 3d 41 8f 97 be 69 57 b1 3e
       0.027743364 0.08433782 -0.29601482 0.34637
000080 d2 7b b7 3d 1e 3b 83 3d d3 13 b5 be 96 4c b2 bc
       0.08959164 0.0640776 -0.35366687 -0.021765035
000090 65 e7 a6 3c 9f a0 2a bf 01 82 26 bf 5c 7d 64 bd
       0.02037401 -0.6665134 -0.6504212 -0.055783615
0000a0 7d 70 2d bd 77 15 39 3e 3d 25 cd be 03 70 ce bc
       -0.042343605 0.18074594 -0.40067473 -0.025199896
0000b0 27 e2 b4 bc e7 9e 1c be 26 13 36 be f1 29 9b b9
       -0.022080494 -0.15294991 -0.17780742 -0.00029595153
0000c0 72 e6 00 bf f8 57 6a be 8d 6a 9c 3e 82 72 ae 3e
       -0.5035163 -0.2288512 0.30550042 0.34071738
0000d0 50 dc 8c be 33 7b 65 be 5f 51 27 be 2b eb 9d be
       -0.27511835 -0.22410278 -0.16339634 -0.3084348
0000e0 c6 5e 55 be 65 3c e9 3d d5 0c 59 bd 00 7b 15 be
       -0.20836934 0.113884725 -0.052990753 -0.14597702
0000f0 a1 95 c5 be 92 d3 f0 bd a5 df 62 3e d0 50 85 3e
       -0.3859072 -0.11759104 0.22155626 0.26038218
000100 e5 65 f7 3e bc 56 36 3e fe 8f 16 3f 92 43 80 be
       0.48319927 0.17806524 0.58813465 -0.25051552
000110 eb 3c 68 3e 56 e2 91 3e 61 dd 07 3e 6c 60 aa 3e
       0.22679488 0.28492993 0.13268043 0.3327669
000120 44 72 22 be a4 cf 4d 3e 65 45 c1 3d 5f ac 1c 3d
       -0.15863901 0.2009874 0.09437064 0.038250323
000130 fc 7f d4 3d c3 02 12 3e ad a2 5f be 86 3e 9d be
       0.103759736 0.14258866 -0.218394 -0.30711764
000140 d7 3e 6f 3e 5d 57 47 3e 80 2e 28 3f 88 fb 2a 3e
       0.23363815 0.1946692 0.65695953 0.16697514
000150 57 5c bd be 49 b3 ec 3d 58 30 b5 3e f2 77 17 bd
       -0.36984512 0.115576334 0.35388446 -0.036979623
000160 1a 24 9e bd 6d d5 37 be c7 96 1b bf 8c aa 0e be
       -0.077217296 -0.17952509 -0.6077694 -0.13932246
000170 4d 29 27 bd ff dc 9e be ff ac e3 3e bd 78 e7 3c
       -0.040810872 -0.31027982 0.44467923 0.028255815
000180 86 b9 75 3e 23 6a e2 3c a4 3d 0b bf 88 31 82 3e
       0.23996553 0.0276385 -0.5439093 0.25428414
000190 52 85 a0 3d 95 7a 2d 3e b1 07 31 be c9 9a 00 bd
       0.07837929 0.16941293 -0.1728809 -0.031397615
0001a0 0a 95 56 be 8f ca 49 be 8e 76 ca bd 80 9f f5 3e
       -0.20955291 -0.19706176 -0.09885894 0.4797325
0001b0 5f db 38 3d ea c4 cc bc 24 b9 1a 3d 57 ab 1a 3d
       0.045131084 -0.02499624 0.03777422 0.03776106
0001c0 5e 2f 84 be 90 2e 62 bc c4 9a d7 3e 06 ec 22 be
       -0.25817388 -0.013805047 0.42110264 -0.15910348
0001d0 30 d3 8e be 77 69 d1 bd d1 a1 8c be c9 26 4d 3e
       -0.27895498 -0.10225194 -0.27467206 0.20034327
0001e0 8d ef ea bd e9 56 cd 3e d4 b0 98 3e 06 da b1 be
       -0.11471472 0.4010537 0.2982241 -0.3473665
0001f0 87 39 1e be e2 47 6c be a7 bb a0 bd f4 b8 c8 3d
       -0.15451632 -0.23074296 -0.07848292 0.09800902
000200 d5 b2 11 3e ce c8 94 bd c8 4e 5a 3d c8 8a b5 bc
       0.14228375 -0.07264863 0.053297788 -0.022160903
000210 73 e9 c4 3e 6d c9 d3 be 26 ac 30 3e c1 52 c1 be
       0.38459358 -0.41364613 0.1725317 -0.3775845
000220 e9 e4 39 be 3e c8 86 3e bf 0b 34 3f 0c 75 10 bf
       -0.18153729 0.26324648 0.70330423 -0.564286
000230 46 53 1a be 8c 7f 93 3e bb 5d 0a 3e ef 46 a0 bd
       -0.15070829 0.28808248 0.13512318 -0.078260295
000240 36 4f c7 3d 44 72 1f 3c 5f 68 d8 3e 8f dc 6b be
       0.09731905 0.009731833 0.4226713 -0.23033355
000250 62 c0 29 bf 67 db 46 3e 27 b1 d5 be 12 36 2d 3d
       -0.6630918 0.19419633 -0.4173672 0.042287894
000260 5f c9 a8 be e4 3d 0c 3e db 11 e8 be 01 ef 91 bd
       -0.32966134 0.13695484 -0.45326123 -0.071256645
000270 d7 9c 85 3c c8 b6 b1 3c c6 ac e3 bd a9 b2 1c bf
       0.016310139 0.021693602 -0.11116938 -0.61210114
000280 38 10 18 bd 24 be 18 3f d6 14 91 be 88 e1 ef be
       -0.037124842 0.5966513 -0.2833621 -0.46851754
000290 f3 00 66 bc 2e 0f c8 bd 5d b4 4c bd e7 9e 12 be
       -0.014038312 -0.0976852 -0.049976695 -0.14318429
0002a0 2c 15 e2 be 9d 1a dc 3b 23 38 74 be e4 ba 68 be
       -0.44156778 0.0067170397 -0.2384954 -0.22727543
0002b0 b8 fd 98 3e d9 7d 51 be 45 79 ad 3c 2e b5 ba 3e
       0.29881072 -0.20458163 0.02117599 0.36466354
0002c0 29 7e 9c be fc c2 7d be bd 02 fb bd 4c b7 d1 be
       -0.30565003 -0.24781412 -0.12256382 -0.40960157
0002d0 44 60 10 3c 05 26 5c 3d 08 78 2d be e8 33 0e 3c
       0.008812014 0.053747196 -0.1694032 0.008679368
0002e0 af 71 98 bd c5 5a 95 bd 86 cc 2d be 97 0e 12 3e
       -0.074435584 -0.072927035 -0.16972551 0.14263378
0002f0 61 dd c8 3d a4 47 34 be 39 40 70 3e 98 55 b0 3e
       0.0980785 -0.17605454 0.23461999 0.34440303
000300 7f 9d f8 be 1c 72 7e bd 88 b9 c0 be 22 c5 86 be
       -0.4855766 -0.062120542 -0.3764155 -0.26322275
000310 9f 3a 3f be 86 62 ec bc b1 19 88 be a0 c6 8d bb
       -0.18674706 -0.028855573 -0.265821 -0.0043266565
000320 a4 e2 6d 3e 4b 73 9b 3d 10 d8 ee 3d 97 72 b0 3e
       0.23230988 0.0759035 0.116623044 0.34462425
000330 1e 65 ff be c0 ca 8d be b4 b7 b2 be 04 3b 74 be
       -0.49881834 -0.27693748 -0.3490578 -0.23850638
000340 31 c3 52 be 0a 94 39 be d3 94 0a bf 06 23 58 3e
       -0.20582272 -0.18122879 -0.5413334 0.2110711
000350 a5 aa 93 3d 94 83 58 be f0 d7 0a bd c3 9a b5 3c
       0.07210282 -0.21143943 -0.03389734 0.022168523
000360 81 29 39 3c 96 29 8b 3e 2e 7f ec 3d 70 71 ba bc
       0.011301399 0.27180165 0.11547695 -0.02275917
000370 91 28 e5 3e 29 61 67 3e 0b d3 d0 3e c0 22 fa 36
       0.44757512 0.22595657 0.40786013 7.454626e-06
000380 e4 76 ce bd 25 9c e0 be 71 12 28 3e 50 8a 49 3d
       -0.1008127 -0.4386913 0.16413285 0.04920417
000390 30 a5 6c 3e 53 2e 0f be 24 e2 cd be cc 3b 0c be
       0.23109889 -0.13982515 -0.40211594 -0.13694686
0003a0 cd 38 c5 3d 54 ec 20 bf 8a e1 9a 3c 4e 72 dd 3e
       0.096299745 -0.6286061 0.018906374 0.4325127
0003b0 82 1b 0e bf 36 96 5f 3e c3 13 3e be bd 51 ab bd
       -0.55510724 0.21834645 -0.18562226 -0.083652
0003c0 8d d3 22 3e d4 cb e2 3c 82 1e 8b 3e ba 14 24 3c
       0.15901013 0.027685083 0.27171713 0.010014707
0003d0 cc e8 11 3e 5e c3 c8 3e f1 6a 89 3d c0 14 ea be
       0.14248961 0.39211553 0.067098506 -0.45718956
0003e0 d7 40 cf bb 18 1e 07 bf 02 24 92 be 63 5d a9 be
       -0.006324868 -0.52780294 -0.28543097 -0.3307906
0003f0 86 8e b8 3e 92 1e 85 be 45 3d 0c 3e 2d 9c ff 3d
       0.36046237 -0.25999886 0.13695247 0.1248096

base.0.bias f4 [1024]
000000 83 d7 ec bd a9 31 1e 3e e8 f9 28 bf cc 08 35 bf
       -0.11564543 0.15448631 -0.66006327 -0.7071655
000010 11 c8 84 3e d4 a2 2b be 38 f5 be 3e 33 cd 03 bf
       0.2593389 -0.16761333 0.37296462 -0.51484984
000020 b6 e5 ca be 35 06 aa 3d 6b 92 0a bf d4 6c 58 be
       -0.3962838 0.08301965 -0.54129666 -0.21135265
000030 32 bf ac be a8 c6 fe 3d 80 38 af be ea 23 83 3e
       -0.3373962 0.124402344 -0.34222794 0.25613338
000040 01 d4 1f bd 5c 39 1d bf 83 fe 7a 3e 72 22 eb be
       -0.039020542 -0.6141565 0.24511151 -0.45924717
000050 ba 8e c7 be 5a 3e 0b 3e 25 81 a7 3d 34 6d b4 3d
       -0.3897608 0.13598004 0.08178929 0.08809891
000060 7e b2 85 3e 20 dd 02 be d0 ed 7a be eb 22 38 be
       0.2611274 -0.12779665 -0.24504781 -0.1798207
000070 ed 27 b7 be 7f 33 1d bd 4b cd 88 be 3f a2 19 be
       -0.35772648 -0.03837919 -0.26719126 -0.15003298
000080 7b 78 40 be 96 03 a5 3d 3e 16 77 3e 1c 49 c6 bd
       -0.1879596 0.080573246 0.24129578 -0.09681913
000090 54 29 77 be 43 7c a6 be ba cf 25 3d d2 2d ad 3b
       -0.24136859 -0.3251668 0.040481307 0.005285003
0000a0 c0 cd ea bd 6d 28 80 bd 8d 93 f5 be 16 eb 1b bf
       -0.11465025 -0.062577106 -0.47964135 -0.6090559
0000b0 f2 ac 29 be 5f a8 54 3d 10 e4 60 bc 1d c2 f0 be
       -0.1656988 0.051918384 -0.013726249 -0.47023097
0000c0 a5 33 2e 3e bf e0 ea 3e b2 25 ad be 1f 08 f4 bd
       0.17011888 0.45874593 -0.33817822 -0.119156115
0000d0 45 77 8f be f5 a1 b8 be 63 28 23 3e f2 fc 0e be
       -0.28020683 -0.36061063 0.15933375 -0.13963678
0000e0 56 8c 93 3d 6c a3 66 be 3a a4 cb 3e 33 c2 f2 bd
       0.07204501 -0.22523278 0.39773732 -0.11853447
0000f0 80 f7 26 be d9 c6 74 3e 88 40 f6 be 3b 19 94 3d
       -0.16305351 0.2390398 -0.48096108 0.07231375
000100 9f 5a 8d be 4f fc b1 be 42 03 08 bf d3 7c 29 bd
       -0.276082 -0.3476281 -0.5312997 -0.041378807
000110 f1 76 48 3e af e7 16 bf de 28 e8 be 41 44 a7 be
       0.19576623 -0.5894727 -0.4534368 -0.3266926
000120 a3 25 2b 3d 01 3c 2a be 21 1d 1c be 24 09 96 bd
       0.04178394 -0.16624452 -0.15245487 -0.07325962
000130 59 86 11 bf 03 2e c5 be 37 33 32 3d fa cb 80 be
       -0.56845623 -0.38511667 0.043505874 -0.25155622
000140 6d b8 f4 3d e3 79 ee be 84 95 e1 3e e0 1b f3 3e
       0.11949239 -0.46577367 0.44059384 0.47482204
000150 d5 b1 21 bf 1a b4 e1 3c 10 6d 0d bf 3e e0 79 bd
       -0.63161975 0.0275517 -0.5524454 -0.06100487
000160 3c 43 95 be fd 01 f8 be 8e dd 23 bf e4 27 71 be
       -0.29152858 -0.48439017 -0.6400994 -0.23550373
000170 ba 82 69 3e c6 76 c2 3c ac fe 86 3e c2 82 ea be
       0.22803774 0.023738276 0.26366174 -0.45802885
000180 77 4f 38 bf d7 fc 0e 3e f2 d7 db bd f5 76 89 3d
       -0.71996254 0.13963638 -0.10734548 0.067121424
000190 bb cf e2 bd d7 5c c5 be 04 80 26 bc e1 7a 39 bf
       -0.11074778 -0.38547394 -0.010162357 -0.72453123
0001a0 86 a5 95 be 75 84 0f bd 02 df 9a 3e 09 97 d1 3d
       -0.29227847 -0.03503843 0.30248266 0.10233886
0001b0 8b 6f be be 71 c3 48 3e 20 cc f4 3c 04 7c 2e 3f
       -0.37194476 0.19605805 0.02988249 0.6815798
0001c0 b7 e2 da 3d 7a 12 ff be 09 ee 4d bd 92 52 e3 3e
       0.10687774 -0.49818784 -0.050275836 0.44398934
0001d0 3d 3e e9 bd 97 f4 59 3c dd b7 97 be 3f f3 c7 3e
       -0.11388824 0.013302944 -0.29632464 0.3905277
0001e0 2d 88 d6 bc cc 66 cd be d5 ce 56 be 5b b9 d5 3b
       -0.02618798 -0.4011749 -0.20977338 0.0065223402
0001f0 33 6c 56 3f af aa 3f be 43 fc a6 be 2a c8 7c 3e
       0.8375885 -0.18717454 -0.32614335 0.24685732
000200 33 bd fd 3d 73 67 df bc 76 f0 19 be a4 6b 97 be
       0.123896025 -0.027271008 -0.15033135 -0.2957431
000210 5d 6b a1 3e 28 24 04 bf f6 60 6d bc b4 08 b9 be
       0.31527224 -0.5161767 -0.014488449 -0.36139452
000220 91 ff 46 be 0b 2a 80 be 74 00 3a bf 6a 44 0a bf
       -0.19433428 -0.25032076 -0.7265694 -0.5401064
000230 f0 e4 95 be a0 c6 7f 3e 73 bf e8 be 2d fe 7e be
       -0.29276228 0.24978113 -0.45458564 -0.24901648
000240 10 0f b3 3e cf 0d 9c 3e b9 da c3 be e8 4d bc 3d
       0.3497243 0.30479285 -0.3825281 0.09194547
000250 c5 4a 00 bf 38 e5 de be a3 5a 0d 3e 55 8d ab bd
       -0.5011409 -0.43534255 0.13804106 -0.08376566
000260 52 b1 45 be ca f0 93 be 6c ee 85 3b 53 59 a1 3d
       -0.19305924 -0.28894645 0.00408726 0.07878365
000270 58 82 2c 3e ad 7b 23 bf 80 58 48 bf cd 4c 76 be
       0.16846597 -0.6386059 -0.7826004 -0.24052735
000280 d7 6f 2c 3d 79 2d d7 bd b5 82 cc be 7e de 8e be
       0.042098846 -0.1050672 -0.39943472 -0.27904123
000290 89 71 c8 bd 0c 27 98 bd 0e cf 7e bd 24 19 59 be
       -0.0978728 -0.074293226 -0.06220918 -0.21200997
0002a0 8a 4c 2c 3e a5 4e e2 be d5 d5 5a 3f b1 ae 13 bf
       0.16826072 -0.44200626 0.8548253 -0.5768843
0002b0 98 d0 df be 80 95 55 bf 1e d9 f1 be 78 39 8d 3d
       -0.43713832 -0.83431244 -0.4723596 0.06895727
0002c0 d8 ce 07 be 2e 6e af 3e 9b 86 9b 3d f9 44 ca 3e
       -0.13262498 0.34263748 0.07594033 0.39505747
0002d0 14 b2 dd bd b0 b1 b0 bd 05 1d 06 bf f0 18 0f 3f
       -0.10824981 -0.08627641 -0.5238803 0.55897427
0002e0 6e 91 e4 3e 5f 5f b9 be cb 23 62 3d 81 8f a6 be
       0.44642204 -0.36205575 0.055209916 -0.3253136
0002f0 3d b3 d9 be 7d 4a 52 3e 64 5e fa be bf bf af be
       -0.4251956 0.20536228 -0.4890014 -0.34325978
000300 14 19 cd 3e e5 7a f9 bd 5f 59 57 be 46 93 3a be
       0.40058196 -0.121816434 -0.21030186 -0.18220243
000310 3b c5 37 3d 6d 8e 04 be 8a e4 3c 3e b8 8e 4f be
       0.044865828 -0.12944956 0.18446556 -0.20269287
000320 44 a3 e4 be 51 54 86 bd af fc bc be 4c 55 3b be
       -0.44655812 -0.06559051 -0.36911532 -0.18294257
000330 ee 1d e8 be 8b 6c 5f be c5 dc 7d be 3c f6 f6 bd
       -0.45335335 -0.2181875 -0.24791248 -0.12058684
000340 b3 3f 9b be b0 3b 4f bf 70 94 32 3e e3 25 d3 be
       -0.30322036 -0.8095045 0.17439437 -0.41239843
000350 32 5f 94 be d0 8e fa be 1a 0b 95 3e 3e 57 a1 be
       -0.28978878 -0.48937082 0.29110032 -0.31511873
000360 2b 5e e1 3e b8 99 d8 3d 88 f0 6a bf a0 11 75 bd
       0.44017157 0.105761945 -0.9177327 -0.05983126
000370 e9 af 28 bd 22 04 8f bd 37 96 76 3e 8f 37 a2 bc
       -0.041183386 -0.0698321 0.2408074 -0.019801883
000380 1b b0 b1 3e ed 6e a0 3e 05 03 3c bf ff d2 3e be
       0.3470467 0.3133463 -0.7344211 -0.18635176
000390 43 ba f3 bd 99 1b 33 bc a0 d7 2d be 87 d2 23 bd
       -0.11900761 -0.010931873 -0.16976786 -0.039995696
0003a0 33 63 19 3e 8c 4a cd be 96 a4 6f 3e a5 5a 9b 3e
       0.14979248 -0.40095937 0.23402628 0.30342594
0003b0 4b 1f 1f bf af 7c f3 be df 16 bc bd 3e dc 5d be
       -0.62157124 -0.47556064 -0.0918405 -0.21666047
0003c0 e8 d8 7c be a6 83 d9 be db 36 21 bd 65 a1 58 be
       -0.24692118 -0.42483252 -0.039358955 -0.21155317
0003d0 63 4d cb 3e 9c 17 e7 3d 22 85 0c bf 7e f9 a8 be
       0.3970748 0.112838 -0.54890645 -0.33002847
0003e0 ed 24 04 3d ad c5 6f 3e 8c bc 86 bd 14 57 09 3f
       0.032261778 0.23415251 -0.06578931 0.53648496
0003f0 eb 47 95 3e f1 f8 83 be c8 e2 1b bf fc b4 ce bd
       0.29156432 -0.25775865 -0.60892916 -0.10093114

mean.0.weight f4 [8, 1024]
000000 20 74 fe 3d 30 d2 1d 3e fd 44 3e be 6a d8 79 3a
       0.12424493 0.15412211 -0.18581004 0.00095308444
000010 8d dd bf bd 69 91 a4 3b 1f f1 3b be 4b 50 fa 3c
       -0.09368429 0.005022217 -0.18353699 0.030555865
000020 58 15 41 3e c0 bd f4 3e bf 47 03 3c 5d 54 3d be
       0.18855798 0.47801018 0.008012711 -0.18489213
000030 71 bf cc bc e7 33 bf bd 11 95 28 be f3 21 f4 bc
       -0.02499363 -0.093360715 -0.16463114 -0.029801344
000040 87 77 a0 3e 82 9f b9 3d 55 a2 ca 3d 1f 5d 4b 3d
       0.31341192 0.09063627 0.09894244 0.049649354
000050 03 b9 22 be 2d 55 16 3e 44 c9 04 bd c5 0d 01 3d
       -0.15890889 0.1468093 -0.032418504 0.031507272
000060 3b e2 07 3e a5 e6 d7 bd bd b2 18 3e 41 c3 85 3d
       0.13269894 -0.10542039 0.14911933 0.06531382
000070 1a a9 2e be a2 65 10 3e 07 3c 6d 3d e0 b9 07 bd
       -0.17056695 0.1410127 0.057918575 -0.03313625
000080 03 29 1f 3e ef ad c6 bd 4a f8 e7 bd 18 2c d6 bc
       0.15542988 -0.09701144 -0.11326654 -0.026144072
000090 3f b7 8e 3e e2 6f a0 3e 0e 37 7a 3e c8 e2 d1 ba
       0.2787418 0.3133536 0.24435064 -0.0016013021
0000a0 b7 cf dd 3d 69 d3 a1 3e 4c 1e 98 3e 08 71 56 ba
       0.10830634 0.31606606 0.29710615 -0.0008180295
0000b0 63 83 36 be 98 02 87 be 0f ff a7 bd 34 8e 44 be
       -0.17823558 -0.26369166 -0.082029454 -0.19194871
0000c0 9b ed 08 bd 3a 86 0a 3e 34 84 1d 3d ba 94 2f bd
       -0.033429723 0.13527766 0.038456157 -0.042866446
0000d0 52 fe e5 bd 16 ee cf 3c c5 4f 4f 3d 86 bf 0d be
       -0.112301484 0.025382083 0.050613184 -0.13842592
0000e0 e3 7c 2f be df ef 5b bd f4 ca 06 be 98 ae 1f bd
       -0.17137484 -0.053695556 -0.13163358 -0.038984865
0000f0 b5 f9 9d bd b7 c0 a4 3c a5 43 4f 3c a7 f6 2e be
       -0.077136435 0.020111425 0.012650405 -0.17086278
000100 28 38 5b be bf 6a 40 3e 78 08 cd bd c5 1f cc 3d
       -0.2140814 0.1879072 -0.10011381 0.09966997
000110 99 c6 77 3e f0 70 b7 3d 80 82 c4 bd d2 55 fa 3c
       0.24196853 0.08957088 -0.095952034 0.0305585
000120 c9 0e 05 3d 71 ea 31 be 58 f7 b1 bd 5b 39 69 be
       0.032484803 -0.17374589 -0.08689755 -0.22775786
000130 e3 68 97 3d ce 21 d1 bc 22 32 b4 3d e2 1e 94 3d
       0.073930524 -0.025528815 0.087986246 0.07232453
000140 79 de 9c bd bf 98 64 bd c6 ae 00 be d3 47 89 bd
       -0.07659621 -0.055809733 -0.12566671 -0.067031525
000150 73 e7 ca bd 2c 01 dd bb 06 05 27 bc 45 e0 b9 3e
       -0.09907427 -0.0067445245 -0.010194069 0.36303917
000160 e9 55 db bd f3 11 c3 bb 96 49 bb 3d a3 64 e0 bd
       -0.107097454 -0.0059530674 0.09144895 -0.10956695
000170 2d 20 85 3e 6b cd 63 3e cb f2 e3 3c 80 61 01 3e
       0.2600111 0.2224633 0.027825734 0.1263485
000180 53 f7 82 3e 59 7c b6 bb 5a 48 68 be ab 8c 86 be
       0.25579318 -0.0055690226 -0.2268385 -0.26279196
000190 75 49 43 3e 9b 68 26 be 80 b8 1f bc 50 35 f3 3d
       0.1907099 -0.16250841 -0.009748578 0.11875403
0001a0 dc 06 04 3e db 14 33 3d 48 b3 8a be fc fc de 3d
       0.12893242 0.04372106 -0.27089906 0.10888097
0001b0 9c 90 58 3d 14 5b b2 bd 1f 2e b0 bd 77 ea 6d bc
       0.052872285 -0.08708778 -0.08602547 -0.014521233
0001c0 1e 05 ba bd b6 32 ed bd 21 c3 1e 3d dd 29 46 3e
       -0.09083007 -0.11581938 0.03876031 0.19351907
0001d0 d1 c0 f1 3d 22 48 d5 bc 57 99 13 3e 57 44 39 3c
       0.11804355 -0.026035372 0.14413963 0.011307797
0001e0 a2 fd 65 be b9 0f c5 3d 1c af e9 3d ed c1 b0 be
       -0.22460034 0.096221395 0.114103526 -0.34522954
0001f0 a3 4e 35 3d 91 a3 db 3d 86 d9 d6 be e8 14 78 bd
       0.044264447 0.10724557 -0.41962832 -0.060566813
000200 d8 50 07 3d b6 a2 9e 3d a9 19 c0 bd 2d 48 4d 3e
       0.033036083 0.077458784 -0.09379894 0.20047064
000210 d7 03 05 3e 49 0e a7 3e ba ba c8 3e 15 03 ca 3e
       0.12989746 0.32628086 0.3920496 0.39455476
000220 5d 09 f6 bb ea ec db 3c 62 be 6f bd 11 8d 0b be
       -0.0075084404 0.026846368 -0.058531173 -0.13628031
000230 59 70 55 3e 5b b9 58 3c 16 1f b7 3e 02 a3 e3 bd
       0.20843638 0.013227786 0.35765904 -0.11115076
000240 45 8f 5e be 83 30 62 3e 71 e8 14 3e b0 2f 5e be
       -0.2173434 0.22088818 0.14541794 -0.21697879
000250 0c 7b b8 3d 21 7c f3 bd 36 9b f5 3d e7 e9 80 3e
       0.09007844 -0.1188891 0.11992495 0.25178453
000260 d3 68 2d bb 99 7b 8a 3d 6e c5 0f 3e 80 1a 04 be
       -0.0026460185 0.06761856 0.14040157 -0.12900734
000270 20 45 10 be 66 b9 79 be fc af 8e 3e e0 5c 99 be
       -0.14088869 -0.2438713 0.2786864 -0.2995367
000280 d1 35 07 3e 2b 8b 33 be 65 9e ff bc ba 8e 84 be
       0.13204123 -0.17533557 -0.031203458 -0.25890142
000290 ff 8f b0 bc 14 8c a2 bd f8 64 e8 3d 8f ff 8b be
       -0.021553038 -0.07936874 0.11347383 -0.27343413
0002a0 5f dd 84 3e 81 af bd bc c5 05 00 be aa 42 73 bd
       0.25950143 -0.023154976 -0.12502201 -0.059389748
0002b0 b1 37 29 be 76 b3 5f be 4e cc 23 3e cd c9 2e be
       -0.16525151 -0.21845803 0.15995905 -0.17069168
0002c0 68 3a bc 3d 29 c6 17 3c 6d e7 89 bd 49 77 76 3e
       0.091908276 0.009263554 -0.06733594 0.24068941
0002d0 99 fd 2e 3e c8 41 dc 3d 57 0d 00 3e e0 7c 71 3d
       0.17088927 0.10754734 0.12505089 0.05895698
0002e0 ca b1 a3 bd 8c 85 9c 3d f2 f9 d1 3d 77 86 14 3d
       -0.07992895 0.076426595 0.102527514 0.03626105
0002f0 32 ae c6 bd d5 80 88 be 0b 82 e1 be 49 9e 4d bd
       -0.09701194 -0.2666079 -0.44044527 -0.05019978
000300 3c a1 85 3c 55 c7 11 bd a1 2b cb be e7 ec 51 bd
       0.016312234 -0.03559049 -0.39681724 -0.05125132
000310 0a 6b 50 bd 39 c9 7c 3e 3b e0 a4 3d ac 9e ab 3e
       -0.05088333 0.24686135 0.08050581 0.33519495
000320 ce 43 0a bd c5 a7 04 3e b0 57 2a 3d 0d 7b a1 3e
       -0.03375607 0.12954624 0.04158753 0.31539193
000330 97 23 64 3e a6 af 73 3e 41 9c b6 3e ba 11 d6 bd
       0.22279201 0.23797473 0.35666087 -0.104526
000340 f7 30 92 bd 13 f6 57 be 23 78 7b bd 13 a7 bb 3e
       -0.071382456 -0.21089964 -0.06139387 0.36650905
000350 da 4c fa 3d eb 57 42 3e ec da 79 be 92 c1 24 3e
       0.122216895 0.1897885 -0.24399918 0.16089466
000360 fc 91 23 be 60 e3 4a bd 13 56 43 be 99 72 10 be
       -0.15973657 -0.049533248 -0.19075803 -0.14106216
000370 a4 81 8b bd b2 be fe 3d 03 b3 9b be 6f 7c d4 3e
       -0.06811836 0.12438716 -0.30410013 0.41501185
000380 5b 3e aa 3c 04 3e e0 bd f1 a0 a1 3d ce b2 8d bd
       0.020781687 -0.109493285 0.07892025 -0.0691887
000390 99 01 82 be f1 1b 78 bc 96 bf 97 3c 57 6b d6 be
       -0.25391844 -0.0151433805 0.018523972 -0.4187877
0003a0 7b 91 3c 3e 0f 96 9f 3d 5b 87 c5 3e 29 9c 62 3d
       0.18414871 0.07792293 0.3857983 0.055324707
0003b0 a7 0a 94 3c d7 a8 cd bd b6 03 f6 3d ae ee c9 3e
       0.018071486 -0.10041969 0.120124266 0.3943991
0003c0 e2 01 d4 bd ef 5b 37 be c6 9d 9e bd 74 c0 39 3c
       -0.103519216 -0.17906164 -0.07744937 0.011337388
0003d0 1e de 70 3e 1c e4 51 be 5d 3b 00 3d 26 0e d6 3c
       0.23522231 -0.20497173 0.031306613 0.026129793
0003e0 e9 4c 9a 3e 05 f6 fe 3d 25 ef 2a 3e 4b 29 0b be
       0.30136803 0.12449268 0.16692789 -0.13589971
0003f0 e2 e8 aa bd 21 81 9a 3e 1f 69 07 3d fa 44 36 bd
       -0.083452 0.30176643 0.033059236 -0.044499375

mean.0.bias f4 [8]
000000 18 ef a3 3c 5b 2b 44 bd d5 fc b3 bc cb 21 53 3d
       0.02001147 -0.04789291 -0.021971146 0.0515459
000010 a4 ab 3d bc 4c 45 b8 3c 9a 73 79 bd 62 7d 24 be
       -0.011576567 0.02249398 -0.060901262 -0.16063455

std.0.weight f4 [8, 1024]
000000 e3 b1 89 3c 2f d7 18 3c 2a 11 10 bc 77 fb 39 3d
       0.016808456 0.0093286475 -0.008793155 0.04540583
000010 2f c5 67 bc 9f 22 2e bd 40 2f 71 ba 5d 9a 5f 3c
       -0.014146133 -0.042513486 -0.0009200461 0.013647643
000020 b5 a8 20 3b a5 fa fb bc da 0b fb bc a5 7b 8c 3d
       0.002451462 -0.030759165 -0.0306453 0.06859521
000030 fd e8 a1 3d 52 24 e9 bc 28 f3 81 3c e3 07 83 bc
       0.07905767 -0.028459702 0.015863016 -0.015994972
000040 03 72 03 3c ca 67 33 3c cf 9d 85 bb 91 ec 55 bc
       0.008022788 0.010950038 -0.00407765 -0.01305689
000050 86 66 40 3d c5 fc 17 bc 63 85 ff 3c fe 53 70 3c
       0.046972774 -0.009276574 0.031191533 0.014668463
000060 16 9a 43 3d ee 22 a2 bb 49 c1 ba 3c 0c 69 a4 3b
       0.04775437 -0.0049480116 0.022797244 0.0050174054
000070 6e e5 75 3d b1 f4 b4 3c e9 fe 0c 3d 69 e4 d8 bb
       0.060033254 0.022089334 0.03442279 -0.0066190255
000080 ad 21 13 bd ef 6b cd 3c ef a4 0e bd be b8 65 bc
       -0.035920788 0.02507588 -0.03482526 -0.014021097
000090 21 f3 40 3d 19 ce 21 3d a2 94 25 3b 78 4a ab bb
       0.047106866 0.03950319 0.0025265594 -0.005227383
0000a0 60 fb b5 bb af d0 90 bc ec da 1f 3c 3c 32 87 3c
       -0.005553648 -0.017677633 0.009756785 0.016503446
0000b0 ab 43 28 bd 4d 9d 8e 3c c9 7b 10 bc 1f 1b 38 bc
       -0.04108016 0.017408991 -0.008818575 -0.011236935
0000c0 37 3d 36 3d d4 06 58 bd d9 42 0f bc eb 3f e9 bb
       0.044491973 -0.052740887 -0.008743965 -0.0071182153
0000d0 d6 9e 6c bc 0c c7 47 bb 48 43 12 bd 82 85 50 bb
       -0.014442166 -0.0030483631 -0.035708696 -0.0031817858
0000e0 ba 75 49 38 39 e6 5a bc 99 18 22 bd 16 5a 8d 3c
       4.8031776e-05 -0.013360553 -0.03957424 0.01725487
0000f0 ec 4e fa bc 47 ae cd ba 5d 0d 02 bd 99 bc 90 bc
       -0.030555211 -0.0015692197 -0.031751025 -0.017668055
000100 bf 2e b8 bc 76 bd df bc 10 f4 2e 3d 1d 1f 03 bd
       -0.022483228 -0.027312022 0.042713225 -0.032012094
000110 40 a0 f5 3c 58 95 71 3c a6 4b 83 3c 3a f1 d1 3c
       0.02998364 0.014745079 0.016027283 0.025627721
000120 91 47 99 3c 9f d9 49 bd 2d 0d 78 3c 07 0d e4 3b
       0.018710883 -0.049279805 0.01513986 0.006959561
000130 d1 1a 4a 3d 7e 9e be bb bb 67 9c 3a 8d 35 23 ba
       0.04934198 -0.0058172336 0.001193277 -0.0006225936
000140 95 3f 91 bc 07 79 56 3d ce f6 d8 bc 90 32 c6 3b
       -0.017730514 0.052361514 -0.026484873 0.006048508
000150 05 f1 0a 3d 9e 61 b2 bc 72 5d b9 3d 28 3a c4 bc
       0.03392126 -0.021775063 0.090510264 -0.023953512
000160 8f 2a 7d bc b8 ee d8 bc b4 2a de 3b 1a 20 59 bc
       -0.015452041 -0.026481017 0.006779993 -0.0132522825
000170 53 19 21 bd 7f e0 78 3b 49 36 8d bc 61 c1 0d 3d
       -0.03933079 0.0037975607 -0.0172378 0.03460825
000180 4e 7a 8d 3d 84 82 13 bb ab 40 a7 bb 28 0e 43 3d
       0.069080934 -0.0022508213 -0.0051041446 0.047620922
000190 a2 a0 56 bc c0 dd 14 3d b3 3e 7e bc 42 57 ad bc
       -0.013099821 0.03634429 -0.015517878 -0.021159772
0001a0 2f 88 57 3c f5 cf 2e 3d 19 05 48 bc 34 fb 23 3d
       0.013155027 0.042678792 -0.012208247 0.040034488
0001b0 af e0 3a bd 8c d9 d0 bc fd f9 6f bd 58 19 5d bd
       -0.04562443 -0.02549436 -0.058588017 -0.053979248
0001c0 6c 74 e3 3c 80 96 28 3c d5 15 ae 3c 90 bc 3e bd
       0.027765475 0.010289788 0.021250645 -0.046566546
0001d0 89 0f 83 bc 0a 31 8a bc 99 ab 31 3d 7e ae 98 bc
       -0.015998619 -0.016869087 0.04337654 -0.018637892
0001e0 14 d9 73 3d 57 ab 39 bc 30 91 ce bb 06 25 a7 3c
       0.059533194 -0.0113323545 -0.006303929 0.020403396
0001f0 f2 64 bd bd cf 1e b9 3c 12 0f ae 3a a5 ee e4 3c
       -0.092477694 0.022597698 0.0013279638 0.027945826
000200 35 8d 4d 3c 02 af b6 bc cc f6 9e 3c 59 b2 d0 3c
       0.012545873 -0.022300247 0.019404791 0.025475668
000210 3f 0f 06 3d 3c 99 c6 3c 05 a5 0c 3d 13 14 02 3c
       0.032729384 0.02424299 0.034337062 0.007939356
000220 b3 ce 36 3d 0f 6b d3 3c 4d b8 f8 3c db 96 59 3b
       0.044630717 0.025807885 0.030361319 0.003320149
000230 cd 56 92 3a f4 22 2b 3d 93 7e 9b bc 6f 80 88 bd
       0.0011164785 0.04178138 -0.018981254 -0.06665122
000240 82 3b 04 bc be 08 ed 3c 64 09 5f 3b 43 27 cc 3c
       -0.008070828 0.028934833 0.0034032697 0.024921065
000250 9b 51 c7 3c 09 67 5d bc 12 20 bd 3c 65 74 4e bd
       0.024330905 -0.013513335 0.023086581 -0.05040397
000260 a1 ab 92 3c ee 57 25 3b 60 79 57 3d ce c9 07 3c
       0.017904105 0.0025229412 0.052605987 0.00828786
000270 ef ef 8d 3b 48 52 fd 3c 19 ec 3f bd 3e 9d 2d 3d
       0.004331581 0.030923024 -0.04685602 0.042386286
000280 49 b7 03 bc 82 97 05 3c 92 c4 4a 3c 26 73 ba 3c
       -0.008039304 0.008153798 0.012375968 0.022759985
000290 c9 18 96 bc 98 92 12 3d 6d 77 32 3c 62 5c 9f 3c
       -0.018322365 0.035784334 0.010892731 0.019453231
0002a0 ed 3b bd 3c 2f 35 1e bc 41 7d 89 bd 9a 76 1d 3d
       0.023099864 -0.009656235 -0.067133434 0.038443185
0002b0 56 22 d0 3c a9 cd 23 3d c8 15 8d 3d 05 f6 05 bd
       0.025406998 0.039991055 0.0688892 -0.032705326
0002c0 ae ef a0 3b 09 c8 42 39 80 fe 14 bc 4c 70 0a bb
       0.0049113845 0.000185758 -0.009093881 -0.0021124063
0002d0 61 92 8c bc 05 de 94 bb 3e 19 ff 3b a1 f9 15 be
       -0.017159643 -0.0045430684 0.0077849915 -0.14646007
0002e0 0c d8 b4 bb 8b 01 ce bc 16 81 6e bd 16 4a 37 3c
       -0.005518919 -0.02514722 -0.058228575 0.011187097
0002f0 0b de d7 3c 5f 97 f8 3c 8e 03 b8 3c 43 8f 1b 3d
       0.026350996 0.030345617 0.022462633 0.037978422
000300 c3 0e 69 bc e3 a8 0e 3d 7d 70 a4 3c fc a6 ca 3b
       -0.014224711 0.03482903 0.02007317 0.006184457
000310 b1 fa 2a 3d da 79 15 3d 3a b2 68 bd 8a 32 17 3d
       0.041742984 0.03649316 -0.056810595 0.036913432
000320 a0 fe a9 3c 68 a4 34 3b 64 dc d9 3b 4f 8a a0 3c
       0.020751297 0.0027563814 0.006648587 0.0195972
000330 b7 5f e4 bc 71 f5 9b 3c 39 9d ed bc 28 10 85 bb
       -0.027877672 0.019037934 -0.029005634 -0.004060764
000340 b4 2b 36 3b 38 da 20 3c 8d ac 29 bd 85 0f 15 3c
       0.0027797045 0.009817652 -0.041424323 0.009097938
000350 37 66 cf 3c 60 b4 e8 3c 94 35 57 3c 6a 47 13 3c
       0.025317295 0.028406322 0.013135333 0.008989194
000360 e8 74 ce bc d5 06 cb 3c f3 c8 fc 3c ba 8e 19 bd
       -0.02520223 0.024783531 0.030857539 -0.03748963
000370 08 d6 78 bc a0 6e 9b bc 15 0d 4c bc a2 d6 29 3b
       -0.015187748 -0.018973649 -0.012454291 0.0025915285
000380 bd f7 32 3c 0b 47 20 bd 0f b7 cd bb 97 1e 15 3c
       0.010923323 -0.03913025 -0.006277926 0.0091015315
000390 4f 72 ff 3b 76 18 dc 3c b9 fc 27 3d 29 da f7 bb
       0.007795609 0.026867133 0.0410125 -0.0075638485
0003a0 13 04 16 bd ff e1 55 3d 15 b2 18 bd d6 e9 1b 3c
       -0.03662498 0.05221748 -0.037279207 0.0095162
0003b0 fb 78 2c bc c9 7a 2e 3d 51 81 a6 bc 1f 10 96 3c
       -0.010526891 0.042597566 -0.020325335 0.018318234
0003c0 82 71 09 bd 14 61 60 3c 59 e6 33 3c 98 ca 0d 3d
       -0.033555515 0.01369502 0.010980212 0.034617037
0003d0 9b d8 52 bc 6c db 88 3b 71 e4 4c bd 85 4a 60 3d
       -0.012869026 0.0041765478 -0.050022546 0.054758567
0003e0 05 e3 5f bc df 02 4d bd 09 bf 32 3c 37 60 17 bd
       -0.0136649655 -0.050051566 0.010909804 -0.036956992
0003f0 f1 ec bb bc 0a 74 1c bd af e7 9f 3d ae 7b bf bb
       -0.02294013 -0.0381966 0.07807862 -0.005843601

std.0.bias f4 [8]
000000 dd 9d 37 bf f6 87 45 bf 4f cb 48 bf ff 6f 62 bf
       -0.71725255 -0.77160585 -0.78435224 -0.8845214
000010 b8 f6 62 bf c9 dd 16 bf 3b e8 f6 be 93 eb 69 be
       -0.8865771 -0.5893217 -0.48224053 -0.2284377

base.0.weight f4 [1024, 22]
000000 a8 a8 68 be e5 d1 6c 3d 06 d8 a6 3f 46 2e bd be
       -0.22720587 0.05781736 1.3034675 -0.36949366
000010 6f 62 7e 3e 4e 5d ef 3e 94 f1 3d 3f 58 6f ee bf
       0.24842237 0.46750873 0.74196744 -1.862773
000020 11 43 83 3f 5e 0a e4 3f 32 1c 75 be 94 bf 7e 3f
       1.0254842 1.7815664 -0.23936537 0.99511075
000030 04 26 14 3e 16 5f 9a 3f 2d f5 ee be 1c ab d3 3d
       0.14467627 1.2060268 -0.4667143 0.10335371
000040 e8 da a7 3d 8a eb 51 bf 2e bf a1 3d 70 72 3d bf
       0.0819605 -0.8200003 0.07897793 -0.7400274
000050 bc ce 01 3e 8d e3 a4 3f 99 5f 0d bf 07 53 0f be
       0.12676519 1.2881943 -0.55223995 -0.13996516
000060 80 37 a2 be 66 ba 00 bf fa 2e d4 3e 24 38 20 be
       -0.31682968 -0.5028442 0.4144209 -0.15646416
000070 a0 8e af bf 65 04 05 3c ad 61 0b 3f 4f 7a 05 bf
       -1.3715401 0.0081187235 0.54445916 -0.52139753
000080 d9 94 8a 3f ed 27 77 3f 25 e6 ae be 88 18 bd bd
       1.0826675 0.96545297 -0.3415996 -0.092331946
000090 b2 27 1c 3f fa bb e5 3e 55 b3 a6 3f 6c eb 3c bf
       0.6099807 0.44869977 1.3023478 -0.73796725
0000a0 be a7 ae 3d 13 d2 36 3e 6b 01 b1 be 44 b6 8d 3e
       0.08528088 0.17853574 -0.34571394 0.2767812
0000b0 96 e2 6c bf 5f b5 b4 be 9d 0e 54 bf d3 10 aa 3e
       -0.9253324 -0.35294625 -0.828348 0.3321596
0000c0 74 ea 0c bf 26 35 17 bf 49 51 c1 3e 9f 99 bf 3e
       -0.5504525 -0.59065473 0.37757328 0.3742189
0000d0 26 45 5a bf e7 3d 1a bf e2 69 62 3f 76 32 b4 3e
       -0.8526176 -0.60250705 0.88442814 0.3519475
0000e0 95 0c f0 b9 e7 bc 9b bf 22 e9 fb be bd 69 f7 be
       -0.00045785742 -1.2167023 -0.49201304 -0.4832286
0000f0 65 9a d3 3e d6 c8 22 3e 56 0e cc be a3 04 74 be
       0.4132873 0.15896925 -0.39854687 -0.23829894
000100 7f 3c b3 3e 06 cb 44 3e f0 4a 58 bf ca 20 1d 3f
       0.35007092 0.19218072 -0.84489346 0.6137816
000110 0a d2 46 bf 34 7e 24 3f 09 04 26 bf 72 01 7b bd
       -0.77664244 0.6425507 -0.6484991 -0.061280675
000120 c3 cf 14 40 bb c8 55 3f f0 6f c4 3c a5 4a 41 bf
       2.3251808 0.83509415 0.023979157 -0.75504524
000130 6b df 54 bf 0d 71 75 3f 82 13 b2 be f2 81 5f bf
       -0.8315341 0.95875627 -0.34780508 -0.87307656
000140 c8 e6 2e 3f 0c f3 42 bf 36 89 e1 3e 0c 72 d5 be
       0.68320894 -0.7615211 0.44049996 -0.41688573
000150 5a 18 5c 3f 26 f9 97 bf 5d 52 83 bf 1b 13 38 3f
       0.8597466 -1.1872909 -1.025951 0.7190415
000160 58 59 2a 3c 25 7d f8 3e 22 64 68 be db 8c 03 3f
       0.010397278 0.48532978 -0.22694448 0.51386803
000170 77 13 06 3f 24 58 c4 be 24 a0 0f bf ea c1 4a bf
       0.5237345 -0.38348496 -0.5610373 -0.7920214
000180 24 93 56 be 15 4f c9 be 39 72 59 bd 9f 47 dc be
       -0.20954567 -0.39318147 -0.053087447 -0.43023393
000190 f4 2c be be 09 37 02 bd 5b 73 9e 3f dc 6c 9d 3e
       -0.37143672 -0.031790767 1.2378954 0.30747116
0001a0 32 87 01 3f ed e0 1a bf e3 5a 41 3e c3 fd 1d be
       0.50596917 -0.6049946 0.18882327 -0.15428834
0001b0 26 03 e8 be c7 9f 9c be e5 da e4 be 5e 64 04 3f
       -0.45314902 -0.3059065 -0.44698253 0.5171565
0001c0 16 15 55 bf c7 06 61 3e 5b fa 79 3d d5 0b a7 3e
       -0.832353 0.21975242 0.061029773 0.32626215
0001d0 b5 c3 8a 3e ab 0e ca bd dc 9b e0 be 2d 65 a1 be
       0.27102438 -0.09866079 -0.4386891 -0.31522503
0001e0 17 c5 95 bd 58 a4 7a be 7b 4b 30 3d 5b 69 d3 3e
       -0.073129825 -0.24476755 0.043040734 0.41291317
0001f0 ea c8 27 3e a0 cb 85 be 6c 85 01 38 cc 59 d9 3e
       0.16385236 -0.26131916 3.0880256e-05 0.42451322
000200 2d 17 90 be ee c5 95 3e aa a8 5a 3f 7c 0c 68 3e
       -0.28142682 0.2925257 0.8541361 0.22661012
000210 39 fa d9 be be b3 f6 3d 16 0e 1a bf 3c 4c 7d 3d
       -0.42573717 0.12046002 -0.60177743 0.06184028
000220 9b ce 11 be 56 03 fb bd e9 b7 fc bd 8b d1 06 3f
       -0.1423897 -0.12256496 -0.123397656 0.5266349
000230 b7 91 14 3f f5 a7 b7 3d 31 9c e9 3e 6b 06 1b bf
       0.58034843 0.08967582 0.45626977 -0.6055667
000240 18 d9 6c bf 2b 58 ee bd 37 4b b3 3f 76 f7 aa 3c
       -0.9251876 -0.116379105 1.4007329 0.020869952
000250 bd 93 08 bf b9 bc b7 be c5 12 28 3e d0 7a 91 3f
       -0.5335043 -0.3588617 0.1641341 1.1365604
000260 e9 9a 82 be 6e 2c f8 3d 82 76 64 be 7d a3 f1 3e
       -0.25508812 0.12117849 -0.22310832 0.47195044
000270 75 c2 e4 be 93 6f d2 be 5e d1 30 3c 52 d1 dc 3d
       -0.4467961 -0.4110075 0.0107921045 0.10782112
000280 d7 1f 5a bf 3c 56 ab 3d 71 05 33 bf b4 a3 f2 3e
       -0.85204834 0.08366057 -0.6993018 0.4739052
000290 d6 aa 33 bf fa f2 3c 3e 88 3a 19 3d 20 e0 66 3e
       -0.7018255 0.18452063 0.037409335 0.22546434
0002a0 6d 7e b8 be 3b 3e 0b bf 14 92 2b 3f c0 d1 93 3e
       -0.36033955 -0.5439183 0.6701977 0.28870964
0002b0 dd 62 60 bf b5 9f 0a 3f a1 ce b6 bf 47 b9 66 3f
       -0.87650853 0.54149944 -1.4281808 0.9012646
0002c0 32 21 10 3f 4d fd 8a 3e 9c ba c7 3d d4 64 5c bc
       0.5630065 0.27146378 0.0975239 -0.013451774
0002d0 87 d4 ca 3e fa 5f ba 3e 35 31 83 3e 01 db 97 bf
       0.3961527 0.3640135 0.2562348 -1.186371
0002e0 15 61 53 be 03 0f 6d bd c8 65 31 bf 01 43 0c bf
       -0.20642503 -0.057875644 -0.6929593 -0.5478974
0002f0 cc 39 6c 3d 6b 27 77 be ec 15 52 bf 0f dd 7b 3e
       0.057672307 -0.2413613 -0.820647 0.24596046
000300 f3 56 21 be e4 e7 84 3e 62 6a f3 3e 52 d8 57 3f
       -0.15755825 0.25958169 0.475421 0.84314454
000310 89 17 81 bf dc 40 0a bf da b0 d1 3e 1a 00 ae be
       -1.0085307 -0.5400522 0.4095524 -0.33984452
000320 56 cd dc be 72 da 06 3e 2d d5 81 3e 32 df 2b bf
       -0.4312541 0.13169268 0.25357953 -0.67137444
000330 97 e2 9a 3f ae c5 3b 3f 07 12 98 bf ee 19 9e 3f
       1.21004 0.7334851 -1.1880502 1.2351663
000340 75 24 07 bf ed 5f cf bf 3b d9 94 bf 60 c0 6c be
       -0.52790004 -1.6201149 -1.1628793 -0.2312026
000350 2c b7 9a be e6 e1 da bd 8a 16 3b 3e 45 60 d4 3e
       -0.30217874 -0.10687618 0.18270317 0.41479698
000360 26 12 8a 3e 9d 41 aa be f8 0d 5c 3f b7 6d 08 bf
       0.2696697 -0.33253184 0.85958815 -0.5329241
000370 ca a8 59 bf 5f eb 13 bf 6b 20 0b bf bd d2 89 be
       -0.85023177 -0.5778102 -0.5434634 -0.26918593
000380 ca 5b ca 3e e0 b4 00 3e 90 9d 2e 3f 4e 36 c8 be
       0.39523154 0.12568998 0.6820917 -0.3910393
000390 82 37 e8 3c 46 f0 50 3f 12 aa 7e 3f 02 03 ad 3e
       0.02834678 0.8161663 0.99478257 0.33791357
0003a0 a4 89 b3 3d 82 98 d7 bc 8f 11 2a bf 7d 48 9f bf
       0.08766487 -0.026317839 -0.6643304 -1.2443997
0003b0 dc 5b 75 3f 74 2c a2 3e d0 0c 8f 3e bc d6 75 3f
       0.9584329 0.3167454 0.27939463 0.96030784
0003c0 74 f3 22 be b8 78 02 3e d4 0b 92 bf 66 b6 bc 3e
       -0.15913182 0.12741363 -1.140986 0.3685791
0003d0 24 7d 5d 3f 58 07 23 bf 51 2f 02 bf 8c 3b 21 c0
       0.86519074 -0.6368308 -0.5085345 -2.5192595
0003e0 ee cc ea 3e 31 c2 3c 3f 01 76 8a bf 4b 5c 33 bf
       0.45859474 0.7373381 -1.0817262 -0.700627
0003f0 91 59 8b bf 16 8e bd 3e 1d 25 89 3f 8c c1 61 bf
       -1.0886708 0.37022465 1.0714451 -0.88185954

base.0.bias f4 [1024]
000000 70 5b 87 3f 5a 2a 55 be 3c b9 9e bf ae 8d 1c 3c
       1.057478 -0.20816937 -1.2400279 0.009555263
000010 03 be c7 bf aa a4 18 bd a8 8b 20 c0 7e ae 8c be
       -1.5604862 -0.03726641 -2.508524 -0.27476877
000020 c8 c6 99 be ef 8f 13 c0 f5 70 6a be c6 a6 59 3f
       -0.3003447 -2.30566 -0.22894652 0.850201
000030 e8 b5 cc 3e 24 03 56 3f 2a 73 16 c0 37 46 0c bf
       0.39982533 0.8359854 -2.350779 -0.5479464
000040 23 4b 31 3f eb 6f c3 be 00 4e 89 bd 49 fb d2 bf
       0.69255275 -0.38171324 -0.067043304 -1.6482936
000050 cd 25 28 3f 4b a9 94 bf 8d 6b 89 be 4d 09 dc 3e
       0.6568268 -1.1614164 -0.26839867 0.42975846
000060 0f 53 91 3e 3d 69 94 bd ba 1c 80 bf d7 c6 5f be
       0.2838368 -0.07246635 -1.0008767 -0.21853195
000070 d4 3c 06 bf 5b de 2e 3f 2f 23 a1 be 2d d5 24 3d
       -0.52436566 0.6830804 -0.31472155 0.040242363
000080 60 6d 03 3f fa ef 5d bf 8e f0 55 bf 94 ed d6 3b
       0.5133877 -0.866943 -0.8357018 0.0065590832
000090 8e bc df bc d4 21 38 3d b9 5b 3c bf 91 5a 16 bf
       -0.02731159 0.044954136 -0.7357746 -0.58731943
0000a0 2b a5 0a 3e b3 af 57 3d fd 42 c9 bf 61 ca f4 3e
       0.13539569 0.052657794 -1.5723568 0.47810653
0000b0 51 da ae 3e 56 1a 40 3e d2 3f f0 be e6 11 30 3f
       0.34150937 0.18760046 -0.4692369 0.6877731
0000c0 e4 09 09 bf 07 d8 10 3f 94 03 88 be 13 e3 1c 3f
       -0.53530717 0.5657963 -0.2656523 0.6128399
0000d0 5d 6b 0a 3f e4 d1 56 3f 3d 94 cc 3e 9e 8c 27 3f
       0.54070073 0.8391402 0.39956847 0.6544894
0000e0 8c af 9b bf e8 57 1f 3f f3 6a ab 3e 2b b9 29 bf
       -1.2162948 0.6224351 0.33480033 -0.6629817
0000f0 e9 18 77 3f 75 95 ba bf 89 2f d7 3e 44 00 b8 be
       0.96522385 -1.4576861 0.42028454 -0.35937703
000100 30 97 a8 3e 90 28 44 3e 49 5c 94 3f 93 8e 42 3f
       0.32927847 0.19156098 1.1590663 0.759988
000110 e5 08 50 bf 10 60 36 be f7 a4 a8 3e b2 ba 82 be
       -0.8126357 -0.17810082 0.32938358 -0.25533062
000120 ce 27 26 3f c3 0b 4a bf 36 d1 d1 bf af 76 56 bd
       0.6490449 -0.78924197 -1.6391971 -0.05235928
000130 3e ba 8e bf ab 7b a7 bf 9d f2 87 3f 80 31 75 3d
       -1.1150587 -1.3084615 1.0620915 0.05986166
000140 7d ff ff 3e b6 d5 69 3f 79 d5 75 be 92 85 a8 3e
       0.4999961 0.9134172 -0.24007215 0.32914406
000150 9b a0 15 c0 0f 14 0d 3f 41 57 df bf a8 81 9b bf
       -2.3379276 0.5510873 -1.7448503 -1.2148943
000160 95 47 e2 bf 09 19 bb 3d da 51 c8 3d 22 18 2e bf
       -1.7678095 0.091356345 0.09781237 -0.68005574
000170 6e 0b 82 bf c5 6c 8b 3e ae 22 a1 bf 11 5b 24 c0
       -1.0159738 0.27231422 -1.2588708 -2.5680583
000180 8a 5d d5 bb 12 0c 95 be 94 8b 57 3f 48 94 ce be
       -0.006511395 -0.2911077 0.84197354 -0.40347505
000190 85 74 09 3d 74 b5 76 3e ca 6b d6 3e 89 a8 15 bf
       0.033558387 0.24092656 0.41879112 -0.5846029
0001a0 0a 7c 15 3f 3f ca d8 bf e9 a1 42 be 44 17 87 3f
       0.58392394 -1.6936721 -0.19007076 1.0553975
0001b0 ed f7 de be 74 0f 4b bb 2d 0f b1 3d 46 58 56 3f
       -0.43548527 -0.0030984553 0.08645473 0.83728445
0001c0 55 ce 0e bf c6 1a fd 3e 22 71 b1 be 02 e3 69 3e
       -0.5578359 0.4943449 -0.34656626 0.22840503
0001d0 5d 2e 50 be 70 72 c6 be f2 6d 1e 3f a1 42 15 3e
       -0.20330186 -0.38759184 0.61886513 0.14576198
0001e0 65 5a 31 bd 1e a0 85 3e 21 f9 f2 3d 89 49 fd 3e
       -0.043299098 0.26098722 0.11863924 0.49470165
0001f0 4a 33 d5 3e a6 c4 c0 3e ff 18 7c 3f aa d9 09 3f
       0.41640693 0.3765003 0.9847564 0.53847754
000200 65 61 84 bd e8 ce fb bf 64 02 28 bf d3 dc 15 3f
       -0.06463889 -1.9672518 -0.6562865 0.58540076
000210 bf 1f 05 bf ee ff f7 3e be da 32 bf db 6e cc 3e
       -0.52001566 0.48437446 -0.69865024 0.39928326
000220 99 74 df 3d 52 e0 bb 3d 3f d2 dc 3e f0 7c a9 3f
       0.10910911 0.09173645 0.43129155 1.3241253
000230 32 3b 5c 3e ed a9 8f bf 05 92 13 be 45 35 5f be
       0.21506956 -1.1223732 -0.14411171 -0.21797664
000240 8d f2 c2 be ed df 3e bf 00 58 a7 3e 6f a1 2a 3e
       -0.38075677 -0.74560434 0.32684326 0.16663145
000250 6a 89 45 bf 90 56 63 bf 6f ce b9 bf 5b 85 8f bf
       -0.771628 -0.8880396 -1.4516124 -1.1212572
000260 8e 1d 0f be 9c e6 d8 3e 41 f2 62 bf c9 05 38 3f
       -0.13976118 0.4236344 -0.886509 0.7188383
000270 6f 7e 4d be 08 cc 9d 3e 68 2f 98 be 55 37 37 3f
       -0.20067762 0.30819726 -0.29723668 0.71568805
000280 68 c1 61 3f 06 8f 07 3f 1e b9 b8 3e 34 8f 27 bf
       0.8818574 0.5295261 0.36078733 -0.65452886
000290 2d 9d 75 3f 0c 3a ae be 38 50 b8 be 77 42 a9 3f
       0.95942956 -0.3402866 -0.35998702 1.3223408
0002a0 8b f4 80 3e c8 9c c4 be 09 33 ce 3e 3b 44 32 bf
       0.2518657 -0.38400865 0.40273312 -0.6963536
0002b0 2a f0 80 3f 3c 68 dd be 26 37 3c 3f 88 11 05 3e
       1.0073292 -0.43243587 0.7352165 0.12994969
0002c0 dd ee 90 bf ed b8 a0 3f 6f 17 5a 3f e0 74 9d bf
       -1.1322895 1.2556435 0.85192007 -1.2301292
0002d0 b3 8c 92 bf 8c 0d 0d bf 44 09 72 3f 15 75 3c 3f
       -1.1449188 -0.55098796 0.9454539 0.73616153
0002e0 e6 48 64 bf 59 cc 81 3f f9 0f ba bf c6 f2 93 3e
       -0.89173734 1.0140487 -1.4536124 0.2889616
0002f0 7b 37 ea bf ff 48 8a 3e e4 67 0b bf 66 8d a7 bf
       -1.8298181 0.27008817 -0.544554 -1.3090026
000300 8d 33 bb 3e 00 66 8a 3e b1 d6 95 bf 02 03 26 3d
       0.36562768 0.27030945 -1.1706144 0.040530212
000310 da 6e 0f bf 77 c7 a0 be b3 8d 35 3e 39 c1 06 3f
       -0.5602852 -0.3140218 0.17729835 0.52638584
000320 47 12 a3 3f ef 5c 43 bf 35 53 f8 be 09 ea bf be
       1.2739953 -0.7631368 -0.48500982 -0.37483242
000330 a6 e7 39 3e 1e c3 74 be af 7e 08 bf a6 ff 1c c0
       0.18154773 -0.23902556 -0.53318304 -2.4531035
000340 4b 4c 71 3e 3b ea b7 be 93 8f 28 bd fd e7 9a 3f
       0.2356426 -0.3592089 -0.041152548 1.2102047
000350 4f 61 6c 3f 5d 8a 75 3f 5e d8 75 3f bf da bb be
       0.9233598 0.9591425 0.96033275 -0.36690328
000360 f6 64 c3 bf ba 12 7e 3e 0c 71 c5 be 58 ad 93 be
       -1.5265186 0.24811831 -0.3856281 -0.28843188
000370 ef a4 35 3f 2a 42 f2 3e 94 93 b1 3f d4 53 05 3e
       0.70954794 0.47316104 1.3873162 0.13020259
000380 d9 f7 0d 3f 28 76 d5 3d 94 8a 45 3f cf 3a 0a bf
       0.5545631 0.10422927 0.7716458 -0.53995985
000390 4f 53 e6 bf 4e 9c a4 bf 92 51 18 3c 1b ef f0 3d
       -1.7994174 -1.28602 0.009296792 0.11764356
0003a0 55 62 27 3e e8 bb 7f 3f ab 66 3a 3e 36 55 95 bd
       0.16346104 0.998961 0.18203227 -0.07291643
0003b0 b5 bf c5 3d 35 28 ec 3e 10 90 0e bf 67 64 5e 3e
       0.09655706 0.46124426 -0.5568857 0.21717988
0003c0 a4 95 1b bf ee 2b f2 3f f9 55 18 3e 99 aa f8 3d
       -0.6077521 1.8919656 0.14876546 0.12141914
0003d0 92 77 90 bf a1 12 d7 bf bc 8e 9f 3f 21 a2 aa 3e
       -1.128649 -1.680256 1.2465434 0.3332682
0003e0 5e ae fa 3e 98 5d 0b bf 67 6e f1 3e 3a 1f 30 3f
       0.48961157 -0.5443969 0.47154543 0.6879765
0003f0 72 78 61 3e c8 e9 6e bf a6 2d 07 bf 01 8c ba 3f
       0.22018602 -0.9332547 -0.5280403 1.4573976

mlp.0.weight f4 [1, 1024]
000000 71 e2 db 3f 67 58 de bf 80 35 de bf c3 48 1c 40
       1.717848 -1.7370728 -1.7360077 2.441941
000010 83 d6 fc bf 2a ee 46 bf fb 87 05 c0 fc 1e 13 bf
       -1.9752964 -0.7770716 -2.0864246 -0.57469153
000020 77 37 34 bf e9 ea 8c c0 e4 9b be bf 2d 6c 9f 40
       -0.7039713 -4.4036756 -1.4891324 4.981955
000030 af 71 93 3f 73 89 93 40 cd 63 0c c0 ac ad 23 c0
       1.1519068 4.6105285 -2.1935914 -2.557475
000040 56 29 04 40 b6 2f 6f bf 07 a5 e0 3f dc 7f ff bf
       2.065023 -0.93432176 1.7550362 -1.9960895
000050 be 07 c0 bf f0 90 30 c0 a8 20 b8 3f e6 31 af bf
       -1.5002363 -2.7588463 1.4384966 -1.3687103
000060 51 eb c2 3f 06 62 2f bf bb 5d a0 bf d7 99 4b bf
       1.5228063 -0.68508947 -1.2528604 -0.79531616
000070 54 3f 04 c0 aa fa 84 bf 53 90 44 40 f3 25 65 bf
       -2.0663652 -1.0388997 3.0713089 -0.8951103
000080 b8 30 2f bf 96 bc cb bf 8e 7c 3a bf 46 ba 71 bf
       -0.68433714 -1.5916927 -0.72846305 -0.94424856
000090 47 66 63 bf e4 45 b4 3f 76 2b 52 bf 1c a9 97 3f
       -0.8882794 1.4083829 -0.82097566 1.1848483
0000a0 98 6a 9d bf a4 46 11 40 b4 7b 94 c0 ae 06 16 40
       -1.2298155 2.2699366 -4.6401005 2.3441577
0000b0 0e 6b c0 3f 6b b3 ef bf 34 65 59 40 19 56 fa 3f
       1.503267 -1.8726629 3.396802 1.9557525
0000c0 36 f2 d1 bf 7d 96 55 bf 5e 9f bf bf ea 01 c1 bf
       -1.6402042 -0.8343275 -1.497051 -1.5078709
0000d0 95 41 c1 3f a0 cf d3 3f 54 8f 45 bf 25 b5 38 bf
       1.5098139 1.6547737 -0.77171826 -0.72151405
0000e0 66 fa 01 c0 d3 d5 2d 3f ed 6d bb 3f b9 dc ef bf
       -2.030908 0.67904395 1.4642922 -1.8739234
0000f0 e9 b8 5f bf e4 e3 ff bf 75 0a f3 be 2b d0 b1 bf
       -0.87391526 -1.9991422 -0.47468916 -1.3891653
000100 d4 b4 db 3f b6 6f 9a 3f 08 f3 2a 40 9a cb c2 3f
       1.7164559 1.2065341 2.6710835 1.5218384
000110 68 70 0d 40 cd 55 a4 be 42 97 62 bf 82 ac f4 bf
       2.2099857 -0.3209671 -0.8851205 -1.9115145
000120 be 5b de bf 9a 9c 42 c0 69 7a f8 bf 97 e0 90 bf
       -1.7371747 -3.0408082 -1.9412357 -1.1318539
000130 ce 08 17 c0 50 3e 5c c0 c8 f4 e0 3f 0f 0e 61 c0
       -2.3599124 -3.4413033 1.7574701 -3.516483
000140 81 28 84 3f ee 9f 13 40 9a 70 bf bf e3 20 29 bf
       1.0324861 2.3066363 -1.4956238 -0.66065806
000150 d5 37 93 c0 93 4c 3a bf ec 3f 53 c0 d7 cc b1 bf
       -4.6005654 -0.72773093 -3.3007765 -1.3890637
000160 da 8f 5c c0 9b 41 f1 bf 54 73 27 bf 00 1c 42 40
       -3.44628 -1.8848146 -0.6541035 3.032959
000170 69 bb 1a c0 0d 48 b7 3f c2 6a 2e c0 b8 16 73 c0
       -2.4176886 1.4318863 -2.725266 -3.7982616
000180 9c 3e 7c bf 81 48 6a bf 8c 55 00 40 23 f5 14 c0
       -0.98533034 -0.9151688 2.0052214 -2.327462
000190 68 cf aa 3f 8a 74 66 3f b6 dd f9 3f cd 11 2f bf
       1.3344545 0.90021574 1.9520786 -0.68386537
0001a0 9a 30 e9 3f 88 15 4b c0 f1 f8 26 c0 81 25 27 c0
       1.8217957 -3.1731892 -2.6089442 -2.611664
0001b0 41 1a af bf 5c e9 12 40 cb 6c 16 c0 45 71 1b c0
       -1.3679887 2.2954931 -2.3503902 -2.4287884
0001c0 90 a6 36 c0 db 44 0d bf a3 4f 64 bf 46 62 20 c0
       -2.8539162 -0.5518319 -0.89184016 -2.5059981
0001d0 ca 1f 51 40 65 91 b9 bf c3 5b 7f bf f7 9d 2b c0
       3.2675653 -1.4497496 -0.9974939 -2.6815164
0001e0 eb 7a 68 bf 05 33 26 c0 8a ac 0c c0 8d 40 c6 3f
       -0.9081256 -2.596864 -2.198031 1.5488449
0001f0 51 70 2b bf d5 ac 07 c0 1a b6 42 bf b8 c3 55 c0
       -0.66968256 -2.1199238 -0.76059115 -3.3400707
000200 fb 4d 90 bf 87 22 18 c0 19 d6 1a bf c4 5d e3 3f
       -1.1273798 -2.3771074 -0.6048294 1.776299
000210 e4 21 a4 bf 5c a1 90 3f 28 f5 33 40 ab 82 cb 3f
       -1.2822843 1.1299243 2.8118382 1.5899252
000220 95 5c 80 bf c5 6f cf 3f fc 83 2a bf fb 8b 14 40
       -1.0028254 1.6205984 -0.6660764 2.3210437
000230 73 5f 80 bf c3 33 26 c0 e5 e1 ca bf 70 fc 34 bf
       -1.0029129 -2.5969093 -1.5850188 -0.7069769
000240 5b b3 7f c0 d9 61 6d c0 fa 50 03 c0 7a 72 8d bf
       -3.995322 -3.7090971 -2.0518174 -1.105056
000250 b5 43 79 bf 83 ec 5a bf 83 54 09 c0 d1 14 41 c0
       -0.9736894 -0.8551714 -2.1457832 -3.0168955
000260 df 5a c9 3f b3 e4 43 3f bc a2 3d c0 55 dd 8e bf
       1.5730857 0.7652084 -2.9630575 -1.1161295
000270 5b 76 56 bf 4b f0 3d bf f7 e6 26 40 2d 46 23 40
       -0.83774346 -0.7419478 2.607847 2.5511582
000280 01 1b a2 bf bf 29 32 bf 87 32 4a 40 cd 7f 42 bf
       -1.2664491 -0.6959495 3.159334 -0.7597626
000290 06 a6 34 3f c0 9e 87 bf 97 13 97 3f 4c c0 7b bf
       0.7056583 -1.0595322 1.1802853 -0.98340297
0002a0 a4 41 2a 40 ea d2 71 bf 11 d0 8d bf 1a ce 03 c0
       2.6602564 -0.94462454 -1.1079122 -2.0594544
0002b0 9e 71 a1 40 05 3a e1 3f 45 79 42 bf fb 4b 0f c0
       5.0451193 1.7595831 -0.7596629 -2.2390125
0002c0 9b cb da bf 8e ba 85 bf 09 be c3 3f 1e 1d 1b c0
       -1.7093385 -1.0447557 1.5292369 -2.4236522
0002d0 b7 d8 da bf 21 ac 2a bf b4 75 8b 3f f3 07 8b bf
       -1.7097386 -0.666689 1.0895295 -1.0861801
0002e0 0a 8f f9 bf 07 c1 07 40 71 99 d4 bf a4 8c 5a bf
       -1.9496777 2.1211565 -1.6609327 -0.8537085
0002f0 5d 27 fa bf 0e 67 07 bf 4a 01 b1 bf 5e 46 0c c0
       -1.9543263 -0.52891624 -1.3828518 -2.1917949
000300 a0 94 54 bf d1 08 83 bf 0c b2 0c c0 c0 73 34 c0
       -0.83039284 -1.0237066 -2.198367 -2.8195648
000310 a1 5c 42 c0 94 a4 f9 bf 00 1a 47 c0 fa 98 ab 3f
       -3.0369036 -1.950335 -3.110962 1.340606
000320 8e 52 d2 40 13 14 1f c0 ef ce ae bf a0 2f b1 bf
       6.5725775 -2.4856002 -1.3656901 -1.3842659
000330 7c 03 2e bf da fc 76 bf 10 7d 38 c0 6e c8 83 c0
       -0.67974067 -0.9647957 -2.8826332 -4.1182165
000340 5d bf 3b 40 c9 d1 61 40 59 f0 3b bf ff a1 9a 3f
       2.933555 3.5284293 -0.73413616 1.2080687
000350 5e 5d ce 3f ee d8 a7 3f b2 13 7e bf a2 be 05 c0
       1.6122243 1.3113077 -0.992488 -2.0897603
000360 66 63 8f c0 37 f0 81 bf 85 96 ae bf a8 7a 0c c0
       -4.4808836 -1.0151433 -1.3639685 -2.1949863
000370 9e 6b e3 bf df 76 b1 bf 84 e5 37 40 49 94 40 3f
       -1.7767217 -1.3864402 2.8733835 0.75226265
000380 2e 9f f6 3f 6d 15 58 3f e4 17 65 bf 09 1f 81 bf
       1.9267328 0.84407693 -0.8948958 -1.0087596
000390 a7 5a c9 bf fc 70 03 c0 1f 91 fa bf c5 ac 10 bf
       -1.573079 -2.053771 -1.9575537 -0.56513625
0003a0 59 27 35 bf 22 54 fd be 1f e5 1c bf 82 3d 1a c0
       -0.70763165 -0.4947825 -0.6128711 -2.4100041
0003b0 e9 e4 21 bf ca 7b 32 bf 63 50 f2 bf 01 4b 6f bf
       -0.63239914 -0.6972014 -1.8930782 -0.9347382
0003c0 06 5e 76 bf 29 ad 58 40 e1 c4 4c bf 84 3a cd bf
       -0.9623722 3.3855689 -0.79987913 -1.6033483
0003d0 24 a5 25 bf 3f ac 23 40 ef 39 e8 3f bc 08 b6 bf
       -0.6470511 2.557388 1.814268 -1.4221416
0003e0 0a ea 2c 40 3a 5f cc bf 0e 5b 54 bf 1a 71 2f 3f
       2.7017846 -1.5966561 -0.8295144 0.68531954
0003f0 6e a0 de 3f d9 f9 13 c0 2f 4f e9 3f 89 e9 a2 3f
       1.7392709 -2.3121245 1.822729 1.2727519
